Model: "sequential_1"
┏━━━━━━━━━━━━━━━━━━━━━━━━━━━━━━━━━┳━━━━━━━━━━━━━━━━━━━━━━━━┳━━━━━━━━━━━━━━━┓
┃ Layer (type)                    ┃ Output Shape           ┃       Param # ┃
┡━━━━━━━━━━━━━━━━━━━━━━━━━━━━━━━━━╇━━━━━━━━━━━━━━━━━━━━━━━━╇━━━━━━━━━━━━━━━┩
│ lstm_3 (LSTM)                   │ (None, 20, 64)         │        18,688 │
├─────────────────────────────────┼────────────────────────┼───────────────┤
│ dropout_3 (Dropout)             │ (None, 20, 64)         │             0 │
├─────────────────────────────────┼────────────────────────┼───────────────┤
│ lstm_4 (LSTM)                   │ (None, 20, 64)         │        33,024 │
├─────────────────────────────────┼────────────────────────┼───────────────┤
│ dropout_4 (Dropout)             │ (None, 20, 64)         │             0 │
├─────────────────────────────────┼────────────────────────┼───────────────┤
│ lstm_5 (LSTM)                   │ (None, 64)             │        33,024 │
├─────────────────────────────────┼────────────────────────┼───────────────┤
│ dropout_5 (Dropout)             │ (None, 64)             │             0 │
├─────────────────────────────────┼────────────────────────┼───────────────┤
│ dense_2 (Dense)                 │ (None, 16)             │         1,040 │
├─────────────────────────────────┼────────────────────────┼───────────────┤
│ dense_3 (Dense)                 │ (None, 1)              │            17 │
└─────────────────────────────────┴────────────────────────┴───────────────┘
 Total params: 257,381 (1005.40 KB)
 Trainable params: 85,793 (335.13 KB)
 Non-trainable params: 0 (0.00 B)
 Optimizer params: 171,588 (670.27 KB)
