Model: "sequential_7"
┏━━━━━━━━━━━━━━━━━━━━━━━━━━━━━━━━━┳━━━━━━━━━━━━━━━━━━━━━━━━┳━━━━━━━━━━━━━━━┓
┃ Layer (type)                    ┃ Output Shape           ┃       Param # ┃
┡━━━━━━━━━━━━━━━━━━━━━━━━━━━━━━━━━╇━━━━━━━━━━━━━━━━━━━━━━━━╇━━━━━━━━━━━━━━━┩
│ lstm_21 (LSTM)                  │ (None, 20, 64)         │        17,664 │
├─────────────────────────────────┼────────────────────────┼───────────────┤
│ dropout_21 (Dropout)            │ (None, 20, 64)         │             0 │
├─────────────────────────────────┼────────────────────────┼───────────────┤
│ lstm_22 (LSTM)                  │ (None, 20, 64)         │        33,024 │
├─────────────────────────────────┼────────────────────────┼───────────────┤
│ dropout_22 (Dropout)            │ (None, 20, 64)         │             0 │
├─────────────────────────────────┼────────────────────────┼───────────────┤
│ lstm_23 (LSTM)                  │ (None, 64)             │        33,024 │
├─────────────────────────────────┼────────────────────────┼───────────────┤
│ dropout_23 (Dropout)            │ (None, 64)             │             0 │
├─────────────────────────────────┼────────────────────────┼───────────────┤
│ dense_14 (Dense)                │ (None, 16)             │         1,040 │
├─────────────────────────────────┼────────────────────────┼───────────────┤
│ dense_15 (Dense)                │ (None, 1)              │            17 │
└─────────────────────────────────┴────────────────────────┴───────────────┘
 Total params: 254,309 (993.40 KB)
 Trainable params: 84,769 (331.13 KB)
 Non-trainable params: 0 (0.00 B)
 Optimizer params: 169,540 (662.27 KB)
